…
* 構成 (VGG-16)
  - 特徴量を抽出する部分
  - クラシファイア

* 実行
** 前準備
   #+begin_src python :exports both
     import cv2
     import torch
     import torchvision
     from torchvision import models, transforms
     import numpy as np
     import json
     import matplotlib.pyplot as plt
     from PIL import Image
     from pathlib import Path
   #+end_src

   #+RESULTS:


   #+begin_src python :exports both
     use_pretrained = True
     net = models.vgg16(pretrained=use_pretrained)
     net.eval()

     print(net)
   #+end_src

   #+RESULTS:
   #+begin_example
     VGG(
       (features): Sequential(
         (0): Conv2d(3, 64, kernel_size=(3, 3), stride=(1, 1), padding=(1, 1))
         (1): ReLU(inplace=True)
         (2): Conv2d(64, 64, kernel_size=(3, 3), stride=(1, 1), padding=(1, 1))
         (3): ReLU(inplace=True)
         (4): MaxPool2d(kernel_size=2, stride=2, padding=0, dilation=1, ceil_mode=False)
         (5): Conv2d(64, 128, kernel_size=(3, 3), stride=(1, 1), padding=(1, 1))
         (6): ReLU(inplace=True)
         (7): Conv2d(128, 128, kernel_size=(3, 3), stride=(1, 1), padding=(1, 1))
         (8): ReLU(inplace=True)
         (9): MaxPool2d(kernel_size=2, stride=2, padding=0, dilation=1, ceil_mode=False)
         (10): Conv2d(128, 256, kernel_size=(3, 3), stride=(1, 1), padding=(1, 1))
         (11): ReLU(inplace=True)
         (12): Conv2d(256, 256, kernel_size=(3, 3), stride=(1, 1), padding=(1, 1))
         (13): ReLU(inplace=True)
         (14): Conv2d(256, 256, kernel_size=(3, 3), stride=(1, 1), padding=(1, 1))
         (15): ReLU(inplace=True)
         (16): MaxPool2d(kernel_size=2, stride=2, padding=0, dilation=1, ceil_mode=False)
         (17): Conv2d(256, 512, kernel_size=(3, 3), stride=(1, 1), padding=(1, 1))
         (18): ReLU(inplace=True)
         (19): Conv2d(512, 512, kernel_size=(3, 3), stride=(1, 1), padding=(1, 1))
         (20): ReLU(inplace=True)
         (21): Conv2d(512, 512, kernel_size=(3, 3), stride=(1, 1), padding=(1, 1))
         (22): ReLU(inplace=True)
         (23): MaxPool2d(kernel_size=2, stride=2, padding=0, dilation=1, ceil_mode=False)
         (24): Conv2d(512, 512, kernel_size=(3, 3), stride=(1, 1), padding=(1, 1))
         (25): ReLU(inplace=True)
         (26): Conv2d(512, 512, kernel_size=(3, 3), stride=(1, 1), padding=(1, 1))
         (27): ReLU(inplace=True)
         (28): Conv2d(512, 512, kernel_size=(3, 3), stride=(1, 1), padding=(1, 1))
         (29): ReLU(inplace=True)
         (30): MaxPool2d(kernel_size=2, stride=2, padding=0, dilation=1, ceil_mode=False)
       )
       (avgpool): AdaptiveAvgPool2d(output_size=(7, 7))
       (classifier): Sequential(
         (0): Linear(in_features=25088, out_features=4096, bias=True)
         (1): ReLU(inplace=True)
         (2): Dropout(p=0.5, inplace=False)
         (3): Linear(in_features=4096, out_features=4096, bias=True)
         (4): ReLU(inplace=True)
         (5): Dropout(p=0.5, inplace=False)
         (6): Linear(in_features=4096, out_features=1000, bias=True)
       )
     )
   #+end_example

   #+begin_src python :exports both
     n_layer = 0
     for i in net.modules():
         if (isinstance(i, torch.nn.modules.conv.Conv2d) or
             isinstance(i, torch.nn.modules.linear.Linear)):
             n_layer += 1

     print(f"{n_layer} 層がある.")
   #+end_src

   #+RESULTS:
   : 16 層がある.

** データの前処理
   #+begin_src python :exports both
…
